ST Edge AI Core v2.0.0-20049
Created date          : 2025-03-23 00:11:35
Parameters            : validate --target stm32l4 --name network -m D:/EMSE/IA EMBARQUEE/model_test.h5 --compression none --verbosity 1 --workspace C:/Users/cncai/AppData/Local/Temp/mxAI_workspace3213240337950001869778849782871088 --output C:/Users/cncai/.stm32cubemx/network_output --valoutput D:/EMSE/IA EMBARQUEE/Y_test_labels.npy --valinput D:/EMSE/IA EMBARQUEE/X_test_labels.npy

Exec/report summary (validate)
------------------------------------------------------------------------------------------------------------
model file         :   D:\EMSE\IA EMBARQUEE\model_test.h5                                                   
type               :   keras                                                                                
c_name             :   network                                                                              
compression        :   none                                                                                 
options            :   allocate-inputs, allocate-outputs                                                    
optimization       :   balanced                                                                             
target/series      :   stm32l4                                                                              
workspace dir      :   C:\Users\cncai\AppData\Local\Temp\mxAI_workspace3213240337950001869778849782871088   
output dir         :   C:\Users\cncai\.stm32cubemx\network_output                                           
vinput files       :   D:\EMSE\IA EMBARQUEE\X_test_labels.npy                                               
voutput files      :   D:\EMSE\IA EMBARQUEE\Y_test_labels.npy                                               
model_fmt          :   float                                                                                
model_name         :   model_test                                                                           
model_hash         :   0x2ecbe4906cd861b75f07b5fd56f9348d                                                   
params #           :   3,013 items (11.77 KiB)                                                              
------------------------------------------------------------------------------------------------------------
input 1/1          :   'input_0', f32(1x8), 32 Bytes, activations                                           
output 1/1         :   'dense_17', f32(1x5), 20 Bytes, activations                                          
macc               :   3,184                                                                                
weights (ro)       :   11,284 B (11.02 KiB) (1 segment) / -768(-6.4%) vs float model                        
activations (rw)   :   384 B (384 B) (1 segment) *                                                          
ram (total)        :   384 B (384 B) = 384 + 0 + 0                                                          
------------------------------------------------------------------------------------------------------------
(*) 'input'/'output' buffers can be used from the activations buffer

Model name - model_test
------ -------------------------------------------------------- ------------ ------------- ------- ------------------------ --- ------------------ ------------------ ------------------------------- 
m_id   layer (type,original)                                    oshape       param/size       macc             connected to   | c_size             c_macc             c_type                          
------ -------------------------------------------------------- ------------ ------------- ------- ------------------------ --- ------------------ ------------------ ------------------------------- 
0      input_0 (Input, None)                                    [b:1,c:8]                                                     |                                       
       dense_15 (Dense, Dense)                                  [b:1,c:64]   576/2,304         576                  input_0   | -2,304(-100.0%)    -576(-100.0%)      
------ -------------------------------------------------------- ------------ ------------- ------- ------------------------ --- ------------------ ------------------ ------------------------------- 
1      batch_normalization_10 (ScaleBias, BatchNormalization)   [b:1,c:64]   128/512           128                 dense_15   | +1,792(+350.0%)    +448(+350.0%)      Dense_[0]                       
------ -------------------------------------------------------- ------------ ------------- ------- ------------------------ --- ------------------ ------------------ ------------------------------- 
2      leaky_re_lu_10 (Nonlinearity, LeakyReLU)                 [b:1,c:64]                      64   batch_normalization_10   |                    +128(+200.0%)      Nonlinearity_[1]                
------ -------------------------------------------------------- ------------ ------------- ------- ------------------------ --- ------------------ ------------------ ------------------------------- 
4      dense_16 (Dense, Dense)                                  [b:1,c:32]   2,080/8,320     2,080           leaky_re_lu_10   | -8,320(-100.0%)    -2,080(-100.0%)    
------ -------------------------------------------------------- ------------ ------------- ------- ------------------------ --- ------------------ ------------------ ------------------------------- 
5      batch_normalization_11 (ScaleBias, BatchNormalization)   [b:1,c:32]   64/256             64                 dense_16   | +8,064(+3150.0%)   +2,016(+3150.0%)   Dense_[2]                       
------ -------------------------------------------------------- ------------ ------------- ------- ------------------------ --- ------------------ ------------------ ------------------------------- 
6      leaky_re_lu_11 (Nonlinearity, LeakyReLU)                 [b:1,c:32]                      32   batch_normalization_11   |                    +64(+200.0%)       Nonlinearity_[3]                
------ -------------------------------------------------------- ------------ ------------- ------- ------------------------ --- ------------------ ------------------ ------------------------------- 
8      dense_17_dense (Dense, Dense)                            [b:1,c:5]    165/660           165           leaky_re_lu_11   |                    +75(+45.5%)        Dense_/Nonlinearity_[o][4, 5]   
       dense_17 (Nonlinearity, Dense)                           [b:1,c:5]                       75           dense_17_dense   |                    -75(-100.0%)       
------ -------------------------------------------------------- ------------ ------------- ------- ------------------------ --- ------------------ ------------------ ------------------------------- 
model/c-model: macc=3,184/3,184  weights=12,052/11,284 -768(-6.4%) activations=--/384 io=--/0



Generated C-graph summary
------------------------------------------------------------------------------------------------------------------------
model name            : model_test
c-name                : network
c-node #              : 6
c-array #             : 13
activations size      : 384 (1 segment)
weights size          : 11284 (1 segment)
macc                  : 3184
inputs                : ['input_0_output']
outputs               : ['dense_17_output']

C-Arrays (13)
------ ------------------------ ----------- ------------------------- ------------- --------- 
c_id   name (*_array)           item/size   domain/mem-pool           c-type        comment   
------ ------------------------ ----------- ------------------------- ------------- --------- 
0      dense_15_bias            64/256      weights/weights           const float             
1      dense_15_output          64/256      activations/**default**   float                   
2      dense_15_weights         512/2048    weights/weights           const float             
3      dense_16_bias            32/128      weights/weights           const float             
4      dense_16_output          32/128      activations/**default**   float                   
5      dense_16_weights         2048/8192   weights/weights           const float             
6      dense_17_dense_bias      5/20        weights/weights           const float             
7      dense_17_dense_output    5/20        activations/**default**   float                   
8      dense_17_dense_weights   160/640     weights/weights           const float             
9      dense_17_output          5/20        activations/**default**   float         /output   
10     input_0_output           8/32        activations/**default**   float         /input    
11     leaky_re_lu_10_output    64/256      activations/**default**   float                   
12     leaky_re_lu_11_output    32/128      activations/**default**   float                   
------ ------------------------ ----------- ------------------------- ------------- --------- 

C-Layers (6)
------ ---------------- ---- --------------- ------ ------ --------------------------- ------------------ 
c_id   name (*_layer)   id   layer_type      macc   rom    tensors                     shape (array id)   
------ ---------------- ---- --------------- ------ ------ --------------------------- ------------------ 
0      dense_15         1    Dense           576    2304   I: input_0_output           f32(1x8) (10)      
                                                           W: dense_15_weights         f32(64x8) (2)      
                                                           W: dense_15_bias            f32(64) (0)        
                                                           O: dense_15_output          f32(1x64) (1)      
------ ---------------- ---- --------------- ------ ------ --------------------------- ------------------ 
1      leaky_re_lu_10   2    Nonlinearity    192    0      I: dense_15_output          f32(1x64) (1)      
                                                           O: leaky_re_lu_10_output    f32(1x64) (11)     
------ ---------------- ---- --------------- ------ ------ --------------------------- ------------------ 
2      dense_16         5    Dense           2080   8320   I: leaky_re_lu_10_output    f32(1x64) (11)     
                                                           W: dense_16_weights         f32(32x64) (5)     
                                                           W: dense_16_bias            f32(32) (3)        
                                                           O: dense_16_output          f32(1x32) (4)      
------ ---------------- ---- --------------- ------ ------ --------------------------- ------------------ 
3      leaky_re_lu_11   6    Nonlinearity    96     0      I: dense_16_output          f32(1x32) (4)      
                                                           O: leaky_re_lu_11_output    f32(1x32) (12)     
------ ---------------- ---- --------------- ------ ------ --------------------------- ------------------ 
4      dense_17_dense   8    Dense           165    660    I: leaky_re_lu_11_output    f32(1x32) (12)     
                                                           W: dense_17_dense_weights   f32(5x32) (8)      
                                                           W: dense_17_dense_bias      f32(5) (6)         
                                                           O: dense_17_dense_output    f32(1x5) (7)       
------ ---------------- ---- --------------- ------ ------ --------------------------- ------------------ 
5      dense_17         8    Nonlinearity    75     0      I: dense_17_dense_output    f32(1x5) (7)       
                                                           O: dense_17_output          f32(1x5) (9)       
------ ---------------- ---- --------------- ------ ------ --------------------------- ------------------ 
 
Setting validation data...
 loading file: D:\EMSE\IA EMBARQUEE\X_test_labels.npy
   samples are reshaped: (266, 8) -> (266, 1, 1, 8)
 loading file: D:\EMSE\IA EMBARQUEE\Y_test_labels.npy
   samples are reshaped: (266, 5) -> (266, 1, 1, 5)
   I[1]: (266, 1, 1, 8)/float32, min/max=[0.000000, 1.000000], mean/std=[0.405126, 0.348204]
   O[1]: (266, 1, 1, 5)/float32, min/max=[0.000000, 1.000000], mean/std=[0.200000, 0.400000]
 
Running the ST.AI c-model (AI RUNNER)...(name=network, mode=HOST)

 DLL Driver v2.0 - Direct Python binding (C:\Users\cncai\AppData\Local\Temp\mxAI_workspace3213240337950001869778849782871088\inspector_network\workspace\lib\libai_network.dll) ['network']
  
  Summary 'network' - ['network']
  ----------------------------------------------------------------------------------------------
  I[1/1] 'input_1'    :   f32[1,1,1,8], 32 Bytes, in activations buffer                         
  O[1/1] 'output_1'   :   f32[1,1,1,5], 20 Bytes, in activations buffer                         
  n_nodes             :   6                                                                     
  activations         :   384                                                                   
  weights             :   11284                                                                 
  macc                :   3184                                                                  
  hash                :   0x2ecbe4906cd861b75f07b5fd56f9348d                                    
  compile_datetime    :   Mar 23 2025 00:11:30                                                  
  ----------------------------------------------------------------------------------------------
  protocol            :   DLL Driver v2.0 - Direct Python binding                               
  tools               :   ST.AI (legacy api) v2.0.0                                             
  runtime lib         :   v10.0.0                                                               
  capabilities        :   IO_ONLY, PER_LAYER, PER_LAYER_WITH_DATA                               
  device.desc         :   AMD64, Intel64 Family 6 Model 140 Stepping 1, GenuineIntel, Windows   
  ----------------------------------------------------------------------------------------------
 
 NOTE: The duration and execution time per layer are just indications. They depend on the host machine's workload.

  
  ST.AI Profiling results v2.0 - "network"
  ------------------------------------------------------------
  nb sample(s)   :   266                                      
  duration       :   0.004 ms by sample (0.001/0.089/0.006)   
  macc           :   3184                                     
  ------------------------------------------------------------
  
  Statistic per tensor
  --------------------------------------------------------------------------------
  tensor   #     type[shape]:size       min     max     mean      std  name       
  --------------------------------------------------------------------------------
  I.0      266   f32[1,1,1,8]:32      0.000   1.000    0.405    0.348  input_1    
  O.0      266   f32[1,1,1,5]:20      0.000   0.999    0.200    0.287  output_1   
  --------------------------------------------------------------------------------
 
Saving validation data...
 output directory: C:\Users\cncai\.stm32cubemx\network_output
 creating C:\Users\cncai\.stm32cubemx\network_output\network_val_io.npz
 m_outputs_1: (266, 1, 1, 5)/float32, min/max=[0.000000, 0.998998], mean/std=[0.200000, 0.287421], dense_17
 c_outputs_1: (266, 1, 1, 5)/float32, min/max=[0.000000, 0.998998], mean/std=[0.200000, 0.287421], dense_17

 
Computing the metrics...

 Accuracy report #1 for the generated HOST C-model
 ----------------------------------------------------------------------------------------------------
 notes: - computed against the provided ground truth values
        - 266 samples (5 items per sample)

  acc=73.68% rmse=0.272255510 mae=0.151512384 l2r=0.777521729 mean=-0.000000 std=0.272358 nse=0.537080 cos=0.793406 
 
  Confusion matrix (axis=-1) - 5 classes (266 samples)
  ---------------------------------
  C0       139  26   17   15    8  
  C1        .    7    .    .    1  
  C2        .    2   19    .    .  
  C3        .    .    .   15    1  
  C4        .    .    .    .   16  

 Accuracy report #1 for the reference model
 ----------------------------------------------------------------------------------------------------
 notes: - computed against the provided ground truth values
        - 266 samples (5 items per sample)

  acc=73.68% rmse=0.272255510 mae=0.151512414 l2r=0.777521789 mean=0.000000 std=0.272358 nse=0.537080 cos=0.793406 
 
  Confusion matrix (axis=-1) - 5 classes (266 samples)
  ---------------------------------
  C0       139  26   17   15    8  
  C1        .    7    .    .    1  
  C2        .    2   19    .    .  
  C3        .    .    .   15    1  
  C4        .    .    .    .   16  

 Cross accuracy report #1 (reference vs C-model)
 ----------------------------------------------------------------------------------------------------
 notes: - the output of the reference model is used as ground truth/reference value
        - 266 samples (5 items per sample)

  acc=100.00% rmse=0.000000073 mae=0.000000038 l2r=0.000000208 mean=-0.000000 std=0.000000 nse=1.000000 cos=1.000000 
 
  Confusion matrix (axis=-1) - 5 classes (266 samples)
  ---------------------------------
  C0       139   .    .    .    .  
  C1        .   35    .    .    .  
  C2        .    .   36    .    .  
  C3        .    .    .   30    .  
  C4        .    .    .    .   26  


Number of operations per c-layer
------- ------ ------------------------------- ------- -------------- 
c_id    m_id   name (type)                         #op           type 
------- ------ ------------------------------- ------- -------------- 
0       1      dense_15 (Dense)                    576   smul_f32_f32 
1       2      leaky_re_lu_10 (Nonlinearity)       192     op_f32_f32 
2       5      dense_16 (Dense)                  2,080   smul_f32_f32 
3       6      leaky_re_lu_11 (Nonlinearity)        96     op_f32_f32 
4       8      dense_17_dense (Dense)              165   smul_f32_f32 
5       8      dense_17 (Nonlinearity)              75     op_f32_f32 
------- ------ ------------------------------- ------- -------------- 
total                                            3,184 

Number of operation types
---------------- ------- ----------- 
operation type         #           % 
---------------- ------- ----------- 
smul_f32_f32       2,821       88.6% 
op_f32_f32           363       11.4% 

Complexity report (model)
------ ------------------------ ------------------------- ------------------------- -------- -------- ------------------ 
m_id   name                     c_macc                    c_rom                     c_id     c_dur    l2r (X-CROSS)      
------ ------------------------ ------------------------- ------------------------- -------- -------- ------------------ 
1      batch_normalization_10   |||||             18.1%   |||||             20.4%   [0]       13.8%                      
2      leaky_re_lu_10           ||                 6.0%   |                  0.0%   [1]       16.3%                      
5      batch_normalization_11   ||||||||||||||||  65.3%   ||||||||||||||||  73.7%   [2]       39.2%                      
6      leaky_re_lu_11           |                  3.0%   |                  0.0%   [3]        8.6%                      
8      dense_17_dense           ||                 7.5%   ||                 5.8%   [4, 5]    22.1%   2.07856445e-07 *   
------ ------------------------ ------------------------- ------------------------- -------- -------- ------------------ 
macc=3,184 weights=11,284 act=384 ram_io=0

Evaluation report (summary)
------------------------------------------------------------------------------------------------------------------------------------------------------------
Output              acc       rmse          mae           l2r           mean        std        nse        cos        tensor                                 
------------------------------------------------------------------------------------------------------------------------------------------------------------
HOST c-model #1     73.68%    0.272255510   0.151512384   0.777521729   -0.000000   0.272358   0.537080   0.793406   'dense_17', 266 x f32(1x5), m_id=[8]   
original model #1   73.68%    0.272255510   0.151512414   0.777521789   0.000000    0.272358   0.537080   0.793406   'dense_17', 266 x f32(1x5), m_id=[8]   
X-cross #1          100.00%   0.000000073   0.000000038   0.000000208   -0.000000   0.000000   1.000000   1.000000   'dense_17', 266 x f32(1x5), m_id=[8]   
------------------------------------------------------------------------------------------------------------------------------------------------------------

 acc  : Accuracy (class, axis=-1)
 rmse : Root Mean Squared Error
 mae  : Mean Absolute Error
 l2r  : L2 relative error
 mean : Mean error
 std  : Standard deviation error
 nse  : Nash-Sutcliffe efficiency criteria, bigger is better, best=1, range=(-inf, 1]
 cos  : COsine Similarity, bigger is better, best=1, range=(0, 1]
